…
"},"id":"df9jdTrVTndF","executionInfo":{"status":"ok","timestamp":1629877134149,"user_tz":-540,"elapsed":58,"user":{"displayName":"우예진","photoUrl":"","userId":"12350034253265562986"}},"outputId":"87c4a313-d0d6-4c2c-a2ad-1150999a06af"},"source":["regressor.summary()"],"execution_count":null,"outputs":[{"output_type":"stream","text":["Model: \"sequential\"\n","_________________________________________________________________\n","Layer (type)                 Output Shape              Param #   \n","=================================================================\n","lstm (LSTM)                  (None, 60, 50)            10400     \n","_________________________________________________________________\n","dropout (Dropout)            (None, 60, 50)            0         \n","_________________________________________________________________\n","lstm_1 (LSTM)                (None, 60, 50)            20200     \n","_________________________________________________________________\n","dropout_1 (Dropout)          (None, 60, 50)            0         \n","_________________________________________________________________\n","lstm_2 (LSTM)                (None, 60, 50)            20200     \n","_________________________________________________________________\n","dropout_2 (Dropout)          (None, 60, 50)            0         \n","_________________________________________________________________\n","lstm_3 (LSTM)                (None, 50)                20200     \n","_________________________________________________________________\n","dropout_3 (Dropout)          (None, 50)                0         \n","_________________________________________________________________\n","dense (Dense)                (None, 1)                 51        \n","=================================================================\n","Total params: 71,051\n","Trainable params: 71,051\n","Non-trainable params: 0\n","_________________________________________________________________\n"],"name":"stdout"}]},{"cell_type":"code","metadata":{"id":"MbYsBaE-T2bW"},"source":["inputs = lst_m.values\n","inputs = inputs.reshape(-1,1)\n","inputs = sc.transform(
…
nput_shape = (X_train.shape[1],1),activation = 'tanh'))\n","regressorGRU.add(Dropout(0.2))\n","\n","regressorGRU.add(GRU(units = 50, activation='tanh'))\n","regressorGRU.add(Dropout(0.2))\n","\n","regressorGRU.add(Dense(units = 1))\n","\n","regressorGRU.summary()"],"execution_count":null,"outputs":[{"output_type":"stream","text":["Model: \"sequential_1\"\n","_________________________________________________________________\n","Layer (type)                 Output Shape              Param #   \n","=================================================================\n","gru (GRU)                    (None, 60, 50)            7950      \n","_________________________________________________________________\n","dropout_4 (Dropout)          (None, 60, 50)            0         \n","_________________________________________________________________\n","gru_1 (GRU)                  (None, 60, 50)            15300     \n","_________________________________________________________________\n","dropout_5 (Dropout)          (None, 60, 50)            0         \n","_________________________________________________________________\n","gru_2 (GRU)                  (None, 60, 50)            15300     \n","_________________________________________________________________\n","dropout_6 (Dropout)          (None, 60, 50)            0         \n","_________________________________________________________________\n","gru_3 (GRU)                  (None, 50)                15300     \n","_________________________________________________________________\n","dropout_7 (Dropout)          (None, 50)                0         \n","_________________________________________________________________\n","dense_1 (Dense)              (None, 1)                 51        \n","=================================================================\n","Total params: 53,901\n","Trainable params: 53,901\n","Non-trainable params: 0\n","_________________________________________________________________\n"],"name":"stdout"}]},{"cell_type":"code","metadata":{"id":"jE1wXozqWpVg"},"source":["regressorGRU.compile(optimizer=SGD(lr = 0.01, decay = 1e-7, momentum = 0.9,nestero
…
