…
, input_shape = (X_train.shape[1],1),activation = 'tanh'))\n","regressorGRU.add(Dropout(0.2))\n","\n","regressorGRU.add(GRU(units = 50, activation='tanh'))\n","regressorGRU.add(Dropout(0.2))\n","\n","regressorGRU.add(Dense(units = 1))\n","\n","regressorGRU.summary()"],"execution_count":122,"outputs":[{"output_type":"stream","text":["Model: \"sequential\"\n","_________________________________________________________________\n","Layer (type)                 Output Shape              Param #   \n","=================================================================\n","gru (GRU)                    (None, 60, 50)            7950      \n","_________________________________________________________________\n","dropout (Dropout)            (None, 60, 50)            0         \n","_________________________________________________________________\n","gru_1 (GRU)                  (None, 60, 50)            15300     \n","_________________________________________________________________\n","dropout_1 (Dropout)          (None, 60, 50)            0         \n","_________________________________________________________________\n","gru_2 (GRU)                  (None, 60, 50)            15300     \n","_________________________________________________________________\n","dropout_2 (Dropout)          (None, 60, 50)            0         \n","_________________________________________________________________\n","gru_3 (GRU)                  (None, 50)                15300     \n","_________________________________________________________________\n","dropout_3 (Dropout)          (None, 50)                0         \n","_________________________________________________________________\n","dense (Dense)                (None, 1)                 51        \n","=================================================================\n","Total params: 53,901\n","Trainable params: 53,901\n","Non-trainable params: 0\n","_________________________________________________________________\n"],"name":"stdout"}]},{"cell_type":"code","metadata":{"id":"BRmmR-wrgNGe","executionInfo":{"status":"ok","timestamp":1630297175784,"user_tz":-540,"elapsed":8,"user":{"d
…
