…
er_tz":-540,"elapsed":6,"user":{"displayName":"성봄","photoUrl":"https://lh3.googleusercontent.com/a-/AOh14GhLkfMg3oAYwIqNTxpDa_CgZBHrjiJaDyElW0h8IQ=s64","userId":"05348479237892879275"}},"outputId":"c2d4a720-1c95-42e0-8432-d2c3658d048f"},"source":["regressor.summary()"],"execution_count":94,"outputs":[{"output_type":"stream","text":["Model: \"sequential\"\n","_________________________________________________________________\n","Layer (type)                 Output Shape              Param #   \n","=================================================================\n","lstm (LSTM)                  (None, 60, 50)            10400     \n","_________________________________________________________________\n","dropout (Dropout)            (None, 60, 50)            0         \n","_________________________________________________________________\n","lstm_1 (LSTM)                (None, 60, 50)            20200     \n","_________________________________________________________________\n","dropout_1 (Dropout)          (None, 60, 50)            0         \n","_________________________________________________________________\n","lstm_2 (LSTM)                (None, 60, 50)            20200     \n","_________________________________________________________________\n","dropout_2 (Dropout)          (None, 60, 50)            0         \n","_________________________________________________________________\n","lstm_3 (LSTM)                (None, 50)                20200     \n","_________________________________________________________________\n","dropout_3 (Dropout)          (None, 50)                0         \n","_________________________________________________________________\n","dense (Dense)                (None, 1)                 51        \n","=================================================================\n","Total params: 71,051\n","Trainable params: 71,051\n","Non-trainable params: 0\n","_________________________________________________________________\n"],"name":"stdout"}]},{"cell_type":"code","metadata":{"id":"vziskO3M1SA8","executionInfo":{"status":"ok","timestamp":1630298276310,"user_tz":-540,"elapsed":4,"user":{"d
…
input_shape = (X_train.shape[1],1),activation = 'tanh'))\n","regressorGRU.add(Dropout(0.2))\n","\n","regressorGRU.add(GRU(units = 50, activation='tanh'))\n","regressorGRU.add(Dropout(0.2))\n","\n","regressorGRU.add(Dense(units = 1))\n","\n","regressorGRU.summary()"],"execution_count":112,"outputs":[{"output_type":"stream","text":["Model: \"sequential_1\"\n","_________________________________________________________________\n","Layer (type)                 Output Shape              Param #   \n","=================================================================\n","gru (GRU)                    (None, 60, 50)            7950      \n","_________________________________________________________________\n","dropout_4 (Dropout)          (None, 60, 50)            0         \n","_________________________________________________________________\n","gru_1 (GRU)                  (None, 60, 50)            15300     \n","_________________________________________________________________\n","dropout_5 (Dropout)          (None, 60, 50)            0         \n","_________________________________________________________________\n","gru_2 (GRU)                  (None, 60, 50)            15300     \n","_________________________________________________________________\n","dropout_6 (Dropout)          (None, 60, 50)            0         \n","_________________________________________________________________\n","gru_3 (GRU)                  (None, 50)                15300     \n","_________________________________________________________________\n","dropout_7 (Dropout)          (None, 50)                0         \n","_________________________________________________________________\n","dense_1 (Dense)              (None, 1)                 51        \n","=================================================================\n","Total params: 53,901\n","Trainable params: 53,901\n","Non-trainable params: 0\n","_________________________________________________________________\n"],"name":"stdout"}]},{"cell_type":"code","metadata":{"id":"jE1wXozqWpVg","executionInfo":{"status":"ok","timestamp":1630298279906,"user_tz":-540,"elapsed":3,"user":{"d
…
